…
|    layers.3.blocks.1     |    12.602M             |    0.622G  |
|  norm                    |  2.048K                |  0.251M    |
|   norm.weight            |   (1024,)              |            |
|   norm.bias              |   (1024,)              |            |
|  head                    |  1.025M                |  1.024M    |
|   head.weight            |   (1000, 1024)         |            |
|   head.bias              |   (1000,)              |            |
[2022-05-01 17:23:28 swin_base_patch4_window7_224] (main.py 100): INFO SwinTransformer(
  (patch_embed): PatchEmbed(
    (proj): Sequential(
      (0): Conv2d_BN(
        (c): Conv2d(3, 64, kernel_size=(3, 3), stride=(2, 2), padding=(1, 1), bias=False)
        (bn): BatchNorm2d(64, eps=1e-05, momentum=0.1, affine=True, track_running_stats=True)
      )
      (1): Hardswish()
      (2): Conv2d_BN(
        (c): Conv2d(64, 128, kernel_size=(3, 3), stride=(2, 2), padding=(1, 1), bias=False)
        (bn): BatchNorm2d(128, eps=1e-05, momentum=0.1, affine=True, track_running_stats=True)
      )
      (3): Hardswish()
    )
  )
  (pos_drop): Dropout(p=0.0, inplace=False)
  (layers): ModuleList(
    (0): BasicLayer(
      dim=128, input_resolution=(56, 56), depth=2
      (blocks): ModuleList(
        (0): SwinTransformerBlock(
          dim=128, input_resolution=(56, 56), num_heads=4, window_size=7, shift_size=0, mlp_ratio=4.0
          (norm1): LayerNorm((128,), eps=1e-05, elementwise_affine=True)
          (attn): WindowAttention(
            dim=128, window_size=(7, 7), num_heads=4
            (qkv): Linear(in_features=128, out_features=384, bias=True)
            (attn_drop): Dropout(p=0.0, inplace=False)
            (proj): Linear(in_features=128, out_features=128, bias=True)
            (proj_drop): Dropout(p=0.0, inplace=False)
            (softmax): Softmax(dim=-1)
          )
          (drop_path): Identity()
          (norm2): LayerNorm((128,), eps=1e-05, elementwise_affine=True)
          (mlp): Mlp(
            (fc1): Linear(in_features=128, out_features=512, bias=True)
            (act): GELU()
            (fc2): Linear(in_features=512, out_features=128, bias=True)
            (drop): Dropout(p=0.0, inplace=False)
          )
        )
        (1): SwinTransformerBlock(
          dim=128, input_resolution=(56, 56), num_heads=4, window_size=7, shift_size=3, mlp_ratio=4.0
          (norm1): LayerNorm((128,), eps=1e-05, elementwise_affine=True)
          (attn): WindowAttention(
            dim=128, window_size=(7, 7), num_heads=4
            (qkv): Linear(in_features=128, out_features=384, bias=True)
            (attn_drop): Dropout(p=0.0, inplace=False)
            (proj): Linear(in_features=128, out_features=128, bias=True)
            (proj_drop): Dropout(p=0.0, inplace=False)
            (softmax): Softmax(dim=-1)
          )
          (drop_path): DropPath()
          (norm2): LayerNorm((128,), eps=1e-05, elementwise_affine=True)
          (mlp): Mlp(
            (fc1): Linear(in_features=128, out_features=512, bias=True)
            (act): GELU()
            (fc2): Linear(in_features=512, out_features=128, bias=True)
            (drop): Dropout(p=0.0, inplace=False)
          )
        )
      )
      (downsample): PatchMerging(
        input_resolution=(56, 56), dim=128
        (reduction): Linear(in_features=512, out_features=256, bias=False)
        (norm): LayerNorm((512,), eps=1e-05, elementwise_affine=True)
      )
    )
    (1): BasicLayer(
      dim=256, input_resolution=(28, 28), depth=2
      (blocks): ModuleList(
        (0): SwinTransformerBlock(
          dim=256, input_resolution=(28, 28), num_heads=8, window_size=7, shift_size=0, mlp_ratio=4.0
          (norm1): LayerNorm((256,), eps=1e-05, elementwise_affine=True)
          (attn): WindowAttention(
            dim=256, window_size=(7, 7), num_heads=8
            (qkv): Linear(in_features=256, out_features=768, bias=True)
            (attn_drop): Dropout(p=0.0, inplace=False)
            (proj): Linear(in_features=256, out_features=256, bias=True)
            (proj_drop): Dropout(p=0.0, inplace=False)
            (softmax): Softmax(dim=-1)
          )
          (drop_path): DropPath()
          (norm2): LayerNorm((256,), eps=1e-05, elementwise_affine=True)
          (mlp): Mlp(
            (fc1): Linear(in_features=256, out_features=1024, bias=True)
            (act): GELU()
            (fc2): Linear(in_features=1024, out_features=256, bias=True)
            (drop): Dropout(p=0.0, inplace=False)
          )
        )
        (1): SwinTransformerBlock(
          dim=256, input_resolution=(28, 28), num_heads=8, window_size=7, shift_size=3, mlp_ratio=4.0
          (norm1): LayerNorm((256,), eps=1e-05, elementwise_affine=True)
          (attn): WindowAttention(
            dim=256, window_size=(7, 7), num_heads=8
            (qkv): Linear(in_features=256, out_features=768, bias=True)
            (attn_drop): Dropout(p=0.0, inplace=False)
            (proj): Linear(in_features=256, out_features=256, bias=True)
            (proj_drop): Dropout(p=0.0, inplace=False)
            (softmax): Softmax(dim=-1)
          )
          (drop_path): DropPath()
          (norm2): LayerNorm((256,), eps=1e-05, elementwise_affine=True)
          (mlp): Mlp(
            (fc1): Linear(in_features=256, out_features=1024, bias=True)
            (act): GELU()
            (fc2): Linear(in_features=1024, out_features=256, bias=True)
            (drop): Dropout(p=0.0, inplace=False)
          )
        )
      )
      (downsample): PatchMerging(
        input_resolution=(28, 28), dim=256
        (reduction): Linear(in_features=1024, out_features=512, bias=False)
        (norm): LayerNorm((1024,), eps=1e-05, elementwise_affine=True)
      )
    )
    (2): Deit(
      (blocks): ModuleList(
        (0): SwinTransformerBlock(
          dim=512, input_resolution=(14, 14), num_heads=16, window_size=7, shift_size=0, mlp_ratio=4.0
          (norm1): LayerNorm((512,), eps=1e-05, elementwise_affine=True)
          (attn): WindowAttention(
            dim=512, window_size=(7, 7), num_heads=16
            (qkv): Linear(in_features=512, out_features=1536, bias=True)
            (attn_drop): Dropout(p=0.0, inplace=False)
            (proj): Linear(in_features=512, out_features=512, bias=True)
            (proj_drop): Dropout(p=0.0, inplace=False)
            (softmax): Softmax(dim=-1)
          )
          (drop_path): DropPath()
          (norm2): LayerNorm((512,), eps=1e-05, elementwise_affine=True)
          (mlp): Mlp(
            (fc1): Linear(in_features=512, out_features=2048, bias=True)
            (act): GELU()
            (fc2): Linear(in_features=2048, out_features=512, bias=True)
            (drop): Dropout(p=0.0, inplace=False)
          )
        )
        (1): SemanticAttentionBlock(
          (norm1): LayerNorm((512,), eps=1e-05, elementwise_affine=True)
          (multi_scale): multi_scale_semantic_token1()
          (attn): Attention(
            (q): Linear(in_features=512, out_features=512, bias=True)
            (kv): Linear(in_features=512, out_features=1024, bias=True)
            (attn_drop): Dropout(p=0.0, inplace=False)
            (proj): Linear(in_features=512, out_features=512, bias=True)
            (proj_drop): Dropout(p=0.0, inplace=False)
          )
          (drop_path): DropPath()
          (norm2): LayerNorm((512,), eps=1e-05, elementwise_affine=True)
          (mlp): Mlp(
            (fc1): Linear(in_features=512, out_features=2048, bias=True)
            (act): GELU()
            (drop1): Dropout(p=0.0, inplace=False)
            (fc2): Linear(in_features=2048, out_features=512, bias=True)
            (drop2): Dropout(p=0.0, inplace=False)
          )
        )
        (2): Block(
          (norm1): LayerNorm((512,), eps=1e-05, elementwise_affine=True)
          (attn): Attention(
            (q): Linear(in_features=512, out_features=512, bias=True)
            (kv): Linear(in_features=512, out_features=1024, bias=True)
            (attn_drop): Dropout(p=0.0, inplace=False)
            (proj): Linear(in_features=512, out_features=512, bias=True)
            (proj_drop): Dropout(p=0.0, inplace=False)
          )
          (drop_path): DropPath()
          (norm2): LayerNorm((512,), eps=1e-05, elementwise_affine=True)
          (mlp): Mlp(
            (fc1): Linear(in_features=512, out_features=2048, bias=True)
            (act): GELU()
            (drop1): Dropout(p=0.0, inplace=False)
            (fc2): Linear(in_features=2048, out_features=512, bias=True)
            (drop2): Dropout(p=0.0, inplace=False)
          )
        )
        (3): Block(
          (norm1): LayerNorm((512,), eps=1e-05, elementwise_affine=True)
          (attn): Attention(
            (q): Linear(in_features=512, out_features=512, bias=True)
            (kv): Linear(in_features=512, out_features=1024, bias=True)
            (attn_drop): Dropout(p=0.0, inplace=False)
            (proj): Linear(in_features=512, out_features=512, bias=True)
            (proj_drop): Dropout(p=0.0, inplace=False)
          )
          (drop_path): DropPath()
          (norm2): LayerNorm((512,), eps=1e-05, elementwise_affine=True)
          (mlp): Mlp(
            (fc1): Linear(in_features=512, out_features=2048, bias=True)
            (act): GELU()
            (drop1): Dropout(p=0.0, inplace=False)
            (fc2): Linear(in_features=2048, out_features=512, bias=True)
            (drop2): Dropout(p=0.0, inplace=False)
          )
        )
        (4): Block(
          (norm1): LayerNorm((512,), eps=1e-05, elementwise_affine=True)
          (attn): Attention(
            (q): Linear(in_features=512, out_features=512, bias=True)
            (kv): Linear(in_features=512, out_features=1024, bias=True)
            (attn_drop): Dropout(p=0.0, inplace=False)
            (proj): Linear(in_features=512, out_features=512, bias=True)
            (proj_drop): Dropout(p=0.0, inplace=False)
          )
          (drop_path): DropPath()
          (norm2): LayerNorm((512,), eps=1e-05, elementwise_affine=True)
          (mlp): Mlp(
            (fc1): Linear(in_features=512, out_features=2048, bias=True)
            (act): GELU()
            (drop1): Dropout(p=0.0, inplace=False)
            (fc2): Linear(in_features=2048, out_features=512, bias=True)
            (drop2): Dropout(p=0.0, inplace=False)
          )
        )
        (5): Block(
          (norm1): LayerNorm((512,), eps=1e-05, elementwise_affine=True)
          (attn): Attention(
            (q): Linear(in_features=512, out_features=512, bias=True)
            (kv): Linear(in_features=512, out_features=1024, bias=True)
            (attn_drop): Dropout(p=0.0, inplace=False)
            (proj): Linear(in_features=512, out_features=512, bias=True)
            (proj_drop): Dropout(p=0.0, inplace=False)
          )
          (drop_path): DropPath()
          (norm2): LayerNorm((512,), eps=1e-05, elementwise_affine=True)
          (mlp): Mlp(
            (fc1): Linear(in_features=512, out_features=2048, bias=True)
            (act): GELU()
            (drop1): Dropout(p=0.0, inplace=False)
            (fc2): Linear(in_features=2048, out_features=512, bias=True)
            (drop2): Dropout(p=0.0, inplace=False)
          )
        )
        (6): SwinTransformerBlock(
          dim=512, input_resolution=(14, 14), num_heads=16, window_size=7, shift_size=0, mlp_ratio=4.0
          (norm1): LayerNorm((512,), eps=1e-05, elementwise_affine=True)
          (attn): WindowAttention(
            dim=512, window_size=(7, 7), num_heads=16
            (qkv): Linear(in_features=512, out_features=1536, bias=True)
            (attn_drop): Dropout(p=0.0, inplace=False)
            (proj): Linear(in_features=512, out_features=512, bias=True)
            (proj_drop): Dropout(p=0.0, inplace=False)
            (softmax): Softmax(dim=-1)
          )
          (drop_path): DropPath()
          (norm2): LayerNorm((512,), eps=1e-05, elementwise_affine=True)
          (mlp): Mlp(
            (fc1): Linear(in_features=512, out_features=2048, bias=True)
            (act): GELU()
            (fc2): Linear(in_features=2048, out_features=512, bias=True)
            (drop): Dropout(p=0.0, inplace=False)
          )
        )
        (7): SemanticAttentionBlock(
          (norm1): LayerNorm((512,), eps=1e-05, elementwise_affine=True)
          (multi_scale): multi_scale_semantic_token1()
          (attn): Attention(
            (q): Linear(in_features=512, out_features=512, bias=True)
            (kv): Linear(in_features=512, out_features=1024, bias=True)
            (attn_drop): Dropout(p=0.0, inplace=False)
            (proj): Linear(in_features=512, out_features=512, bias=True)
            (proj_drop): Dropout(p=0.0, inplace=False)
          )
          (drop_path): DropPath()
          (norm2): LayerNorm((512,), eps=1e-05, elementwise_affine=True)
          (mlp): Mlp(
            (fc1): Linear(in_features=512, out_features=2048, bias=True)
            (act): GELU()
            (drop1): Dropout(p=0.0, inplace=False)
            (fc2): Linear(in_features=2048, out_features=512, bias=True)
            (drop2): Dropout(p=0.0, inplace=False)
          )
        )
        (8): Block(
          (norm1): LayerNorm((512,), eps=1e-05, elementwise_affine=True)
          (attn): Attention(
            (q): Linear(in_features=512, out_features=512, bias=True)
            (kv): Linear(in_features=512, out_features=1024, bias=True)
            (attn_drop): Dropout(p=0.0, inplace=False)
            (proj): Linear(in_features=512, out_features=512, bias=True)
            (proj_drop): Dropout(p=0.0, inplace=False)
          )
          (drop_path): DropPath()
          (norm2): LayerNorm((512,), eps=1e-05, elementwise_affine=True)
          (mlp): Mlp(
            (fc1): Linear(in_features=512, out_features=2048, bias=True)
            (act): GELU()
            (drop1): Dropout(p=0.0, inplace=False)
            (fc2): Linear(in_features=2048, out_features=512, bias=True)
            (drop2): Dropout(p=0.0, inplace=False)
          )
        )
        (9): Block(
          (norm1): LayerNorm((512,), eps=1e-05, elementwise_affine=True)
          (attn): Attention(
            (q): Linear(in_features=512, out_features=512, bias=True)
            (kv): Linear(in_features=512, out_features=1024, bias=True)
            (attn_drop): Dropout(p=0.0, inplace=False)
            (proj): Linear(in_features=512, out_features=512, bias=True)
            (proj_drop): Dropout(p=0.0, inplace=False)
          )
          (drop_path): DropPath()
          (norm2): LayerNorm((512,), eps=1e-05, elementwise_affine=True)
          (mlp): Mlp(
            (fc1): Linear(in_features=512, out_features=2048, bias=True)
            (act): GELU()
            (drop1): Dropout(p=0.0, inplace=False)
            (fc2): Linear(in_features=2048, out_features=512, bias=True)
            (drop2): Dropout(p=0.0, inplace=False)
          )
        )
        (10): Block(
          (norm1): LayerNorm((512,), eps=1e-05, elementwise_affine=True)
          (attn): Attention(
            (q): Linear(in_features=512, out_features=512, bias=True)
            (kv): Linear(in_features=512, out_features=1024, bias=True)
            (attn_drop): Dropout(p=0.0, inplace=False)
            (proj): Linear(in_features=512, out_features=512, bias=True)
            (proj_drop): Dropout(p=0.0, inplace=False)
          )
          (drop_path): DropPath()
          (norm2): LayerNorm((512,), eps=1e-05, elementwise_affine=True)
          (mlp): Mlp(
            (fc1): Linear(in_features=512, out_features=2048, bias=True)
            (act): GELU()
            (drop1): Dropout(p=0.0, inplace=False)
            (fc2): Linear(in_features=2048, out_features=512, bias=True)
            (drop2): Dropout(p=0.0, inplace=False)
          )
        )
        (11): Block(
          (norm1): LayerNorm((512,), eps=1e-05, elementwise_affine=True)
          (attn): Attention(
            (q): Linear(in_features=512, out_features=512, bias=True)
            (kv): Linear(in_features=512, out_features=1024, bias=True)
            (attn_drop): Dropout(p=0.0, inplace=False)
            (proj): Linear(in_features=512, out_features=512, bias=True)
            (proj_drop): Dropout(p=0.0, inplace=False)
          )
          (drop_path): DropPath()
          (norm2): LayerNorm((512,), eps=1e-05, elementwise_affine=True)
          (mlp): Mlp(
            (fc1): Linear(in_features=512, out_features=2048, bias=True)
            (act): GELU()
            (drop1): Dropout(p=0.0, inplace=False)
            (fc2): Linear(in_features=2048, out_features=512, bias=True)
            (drop2): Dropout(p=0.0, inplace=False)
          )
        )
        (12): SwinTransformerBlock(
          dim=512, input_resolution=(14, 14), num_heads=16, window_size=7, shift_size=0, mlp_ratio=4.0
          (norm1): LayerNorm((512,), eps=1e-05, elementwise_affine=True)
          (attn): WindowAttention(
            dim=512, window_size=(7, 7), num_heads=16
            (qkv): Linear(in_features=512, out_features=1536, bias=True)
            (attn_drop): Dropout(p=0.0, inplace=False)
            (proj): Linear(in_features=512, out_features=512, bias=True)
            (proj_drop): Dropout(p=0.0, inplace=False)
            (softmax): Softmax(dim=-1)
          )
          (drop_path): DropPath()
          (norm2): LayerNorm((512,), eps=1e-05, elementwise_affine=True)
          (mlp): Mlp(
            (fc1): Linear(in_features=512, out_features=2048, bias=True)
            (act): GELU()
            (fc2): Linear(in_features=2048, out_features=512, bias=True)
            (drop): Dropout(p=0.0, inplace=False)
          )
        )
        (13): SemanticAttentionBlock(
          (norm1): LayerNorm((512,), eps=1e-05, elementwise_affine=True)
          (multi_scale): multi_scale_semantic_token1()
          (attn): Attention(
            (q): Linear(in_features=512, out_features=512, bias=True)
            (kv): Linear(in_features=512, out_features=1024, bias=True)
            (attn_drop): Dropout(p=0.0, inplace=False)
            (proj): Linear(in_features=512, out_features=512, bias=True)
            (proj_drop): Dropout(p=0.0, inplace=False)
          )
          (drop_path): DropPath()
          (norm2): LayerNorm((512,), eps=1e-05, elementwise_affine=True)
          (mlp): Mlp(
            (fc1): Linear(in_features=512, out_features=2048, bias=True)
            (act): GELU()
            (drop1): Dropout(p=0.0, inplace=False)
            (fc2): Linear(in_features=2048, out_features=512, bias=True)
            (drop2): Dropout(p=0.0, inplace=False)
          )
        )
        (14): Block(
          (norm1): LayerNorm((512,), eps=1e-05, elementwise_affine=True)
          (attn): Attention(
            (q): Linear(in_features=512, out_features=512, bias=True)
            (kv): Linear(in_features=512, out_features=1024, bias=True)
            (attn_drop): Dropout(p=0.0, inplace=False)
            (proj): Linear(in_features=512, out_features=512, bias=True)
            (proj_drop): Dropout(p=0.0, inplace=False)
          )
          (drop_path): DropPath()
          (norm2): LayerNorm((512,), eps=1e-05, elementwise_affine=True)
          (mlp): Mlp(
            (fc1): Linear(in_features=512, out_features=2048, bias=True)
            (act): GELU()
            (drop1): Dropout(p=0.0, inplace=False)
            (fc2): Linear(in_features=2048, out_features=512, bias=True)
            (drop2): Dropout(p=0.0, inplace=False)
          )
        )
        (15): Block(
          (norm1): LayerNorm((512,), eps=1e-05, elementwise_affine=True)
          (attn): Attention(
            (q): Linear(in_features=512, out_features=512, bias=True)
            (kv): Linear(in_features=512, out_features=1024, bias=True)
            (attn_drop): Dropout(p=0.0, inplace=False)
            (proj): Linear(in_features=512, out_features=512, bias=True)
            (proj_drop): Dropout(p=0.0, inplace=False)
          )
          (drop_path): DropPath()
          (norm2): LayerNorm((512,), eps=1e-05, elementwise_affine=True)
          (mlp): Mlp(
            (fc1): Linear(in_features=512, out_features=2048, bias=True)
            (act): GELU()
            (drop1): Dropout(p=0.0, inplace=False)
            (fc2): Linear(in_features=2048, out_features=512, bias=True)
            (drop2): Dropout(p=0.0, inplace=False)
          )
        )
        (16): Block(
          (norm1): LayerNorm((512,), eps=1e-05, elementwise_affine=True)
          (attn): Attention(
            (q): Linear(in_features=512, out_features=512, bias=True)
            (kv): Linear(in_features=512, out_features=1024, bias=True)
            (attn_drop): Dropout(p=0.0, inplace=False)
            (proj): Linear(in_features=512, out_features=512, bias=True)
            (proj_drop): Dropout(p=0.0, inplace=False)
          )
          (drop_path): DropPath()
          (norm2): LayerNorm((512,), eps=1e-05, elementwise_affine=True)
          (mlp): Mlp(
            (fc1): Linear(in_features=512, out_features=2048, bias=True)
            (act): GELU()
            (drop1): Dropout(p=0.0, inplace=False)
            (fc2): Linear(in_features=2048, out_features=512, bias=True)
            (drop2): Dropout(p=0.0, inplace=False)
          )
        )
        (17): Block(
          (norm1): LayerNorm((512,), eps=1e-05, elementwise_affine=True)
          (attn): Attention(
            (q): Linear(in_features=512, out_features=512, bias=True)
            (kv): Linear(in_features=512, out_features=1024, bias=True)
            (attn_drop): Dropout(p=0.0, inplace=False)
            (proj): Linear(in_features=512, out_features=512, bias=True)
            (proj_drop): Dropout(p=0.0, inplace=False)
          )
          (drop_path): DropPath()
          (norm2): LayerNorm((512,), eps=1e-05, elementwise_affine=True)
          (mlp): Mlp(
            (fc1): Linear(in_features=512, out_features=2048, bias=True)
            (act): GELU()
            (drop1): Dropout(p=0.0, inplace=False)
            (fc2): Linear(in_features=2048, out_features=512, bias=True)
            (drop2): Dropout(p=0.0, inplace=False)
          )
        )
      )
      (downsample): PatchMerging(
        input_resolution=(14, 14), dim=512
        (reduction): Linear(in_features=2048, out_features=1024, bias=False)
        (norm): LayerNorm((2048,), eps=1e-05, elementwise_affine=True)
      )
    )
    (3): BasicLayer(
      dim=1024, input_resolution=(7, 7), depth=2
      (blocks): ModuleList(
        (0): SwinTransformerBlock(
          dim=1024, input_resolution=(7, 7), num_heads=32, window_size=7, shift_size=0, mlp_ratio=4.0
          (norm1): LayerNorm((1024,), eps=1e-05, elementwise_affine=True)
          (attn): WindowAttention(
            dim=1024, window_size=(7, 7), num_heads=32
            (qkv): Linear(in_features=1024, out_features=3072, bias=True)
            (attn_drop): Dropout(p=0.0, inplace=False)
            (proj): Linear(in_features=1024, out_features=1024, bias=True)
            (proj_drop): Dropout(p=0.0, inplace=False)
            (softmax): Softmax(dim=-1)
          )
          (drop_path): DropPath()
          (norm2): LayerNorm((1024,), eps=1e-05, elementwise_affine=True)
          (mlp): Mlp(
            (fc1): Linear(in_features=1024, out_features=4096, bias=True)
            (act): GELU()
            (fc2): Linear(in_features=4096, out_features=1024, bias=True)
            (drop): Dropout(p=0.0, inplace=False)
          )
        )
        (1): SwinTransformerBlock(
          dim=1024, input_resolution=(7, 7), num_heads=32, window_size=7, shift_size=0, mlp_ratio=4.0
          (norm1): LayerNorm((1024,), eps=1e-05, elementwise_affine=True)
          (attn): WindowAttention(
            dim=1024, window_size=(7, 7), num_heads=32
            (qkv): Linear(in_features=1024, out_features=3072, bias=True)
            (attn_drop): Dropout(p=0.0, inplace=False)
            (proj): Linear(in_features=1024, out_features=1024, bias=True)
            (proj_drop): Dropout(p=0.0, inplace=False)
            (softmax): Softmax(dim=-1)
          )
          (drop_path): DropPath()
          (norm2): LayerNorm((1024,), eps=1e-05, elementwise_affine=True)
          (mlp): Mlp(
            (fc1): Linear(in_features=1024, out_features=4096, bias=True)
            (act): GELU()
            (fc2): Linear(in_features=4096, out_features=1024, bias=True)
            (drop): Dropout(p=0.0, inplace=False)
          )
        )
      )
    )
  )
  (norm): LayerNorm((1024,), eps=1e-05, elementwise_affine=True)
  (avgpool): AdaptiveAvgPool1d(output_size=1)
  (head): Linear(in_features=1024, out_features=1000, bias=True)
)
[2022-05-01 17:27:33 swin_base_patch4_window7_224] (main.py 109): INFO number of params: 87812336
[2022-05-01 17:27:33 swin_base_patch4_window7_224] (main.py 112): INFO number of GFLOPs: 4.056449024
[2022-05-01 17:27:33 swin_base_patch4_window7_224] (main.py 154): INFO Start training
[2022-05-01 17:29:09 swin_base_patch4_window7_224] (main.py 246): INFO Train: [0/300][0/1251]	eta 1 day, 9:11:36 lr 0.000001	time 95.5211 (95.5211)	loss 6.9718 (6.9718)	grad_norm 1.4999 (1.4999)	mem 10080MB
…
